sheilai/data.pth (torch, 4991 bytes, 6 tensors)

l1.weight f4 [8, 54]
0.54892045 -0.16334215 0.4646919 0.07915755 0.19145343 -0.22500125 0.40488106 0.27956218
0.4740233 0.36675048 0.15079752 0.47294995 0.22979133 0.39282423 -0.23801717 0.46009424
0.15204798 -0.21486753 0.26891702 0.2889268 0.26123625 0.1668452 0.39236268 0.46576363
0.26766706 -0.05540416 0.38412052 -0.47337723 0.18425281 -0.42599502 -0.041040916 0.4955877
0.49150687 0.31337544 -0.20039803 0.42053425 0.28971416 0.3421429 0.23483576 0.42954427
-0.1492905 0.39063203 0.22748126 -0.12600884 0.5516811 -0.099288926 0.46350735 0.16206808
0.24892044 0.48582903 0.43633014 0.2194688 0.38726383 0.2155242 -0.022742031 -0.24020728
-0.19983488 -0.059536234 -0.057555623 0.36057535 -0.08041258 -0.21356148 -0.11551581 -0.22085363
0.1691306 0.4608364 0.27653116 0.38512668 -0.17092603 0.28667858 -0.008656417 0.24121426
0.40094948 -0.18922059 -0.109221086 -0.11787676 -0.19003227 -0.27317926 0.021024788 -0.16486503
0.5068075 -0.24292618 0.26255584 -0.28617585 -0.0059258775 0.32238862 0.06482774 -0.3875908
-0.0486822 0.26313317 0.30995464 -0.3190385 0.09948152 0.1089073 0.13258308 0.34883064
0.36142114 0.020696793 -0.0012130016 -0.049002763 -0.49242246 -0.11607875 0.38395068 0.59514976
0.37059933 0.21941929 -0.021283174 0.24478495 -0.1335983 -0.3248357 0.4671202 -0.06310355
0.24069734 0.18544273 0.5614343 0.3690251 0.6339997 0.56020635 0.053638507 -0.34293064
0.49956298 -0.2558502 -0.03684285 -0.47483057 0.06820029 0.28029886 0.284947 0.11736685
-0.18387686 0.08294129 -0.013100279 -0.3447417 0.31409842 0.008207069 0.3580224 -0.33954695
0.17857933 -0.16645762 -0.07857042 -0.16719177 -0.12418004 0.54949105 -0.045374345 -0.28274402
0.38344696 0.55801404 0.3662786 0.4397318 0.06353451 0.3717919 -0.11960859 0.06711464
0.33509514 0.046642687 -0.7542286 -0.05645618 0.2517546 0.5256863 -0.26510403 0.26128766
0.5702424 0.42626283 0.19453555 0.14621596 -0.3695323 0.61215127 0.29153413 -0.4375286
-0.18945242 -0.28229868 -0.4740886 -0.3892558 0.62881815 0.41169125 0.045551404 0.52358073
-0.090365574 0.40733084 0.4853309 -0.39561427 0.1844053 0.7846237 0.21655937 0.786555
0.6465016 0.64758104 0.36215577 0.5146889 -0.17345788 -0.37870634 -0.31974432 -0.24419624
-0.21938969 0.4720806 0.40050837 -0.10671155 -0.017801309 0.23015705 -0.3040062 -0.24672213
-0.30664307 -0.24972653 -0.17734359 0.19633743 0.38459617 -0.14243385 0.43857807 -0.258519
0.30880365 0.13946389 0.28827727 -0.14091754 0.20205456 0.07462323 -0.124289386 -0.077284954
0.071451105 0.73651326 -0.5121993 -0.07155978 0.2295237 0.5288328 -0.058563575 -0.2650217
-0.49125826 -0.19352803 -0.07689844 -0.10909709 0.16162829 -0.16462289 0.56852347 -0.14513087
-0.014867666 0.5940869 -0.2424428 -0.026456712 0.27386558 -0.14450955 -0.03126882 -0.007142337
-0.2431979 0.096815094 -0.22385457 0.66445106 -0.12740968 0.59232014 0.3106838 -0.15279286
-0.032729216 -0.5508433 0.67646194 -0.22301479 -0.13255875 -0.6393548 -0.048671395 -0.07691673
00000000: 0d86 0c3f 2a43 27be 19ec ed3e 5b1d a23d
00000010: 5e0c 443e ba66 66be 924c cf3e c622 8f3e
00000020: 2fb3 f23e b8c6 bb3e aa6a 1a3e 7f26 f23e
00000030: 6b4e 6b3e 4220 c93e c6ba 73be 7991 eb3e
00000040: 77b2 1b3e 3c06 5cbe 7eaf 893e 37ee 933e
00000050: c2c0 853e 78d9 2a3e c3e3 c83e 9278 ee3e
00000060: a80b 893e 79ef 62bd 72ab c43e 805e f2be
00000070: c5ac 3c3e 051c dabe 851a 28bd acbd fd3e
00000080: caa6 fb3e bf72 a03e 2435 4dbe 4450 d73e
00000090: 6a55 943e 5b2d af3e c978 703e 3aed db3e
000000a0: 9cdf 18be ec00 c83e d9f0 683e 7608 01be
000000b0: f93a 0d3f fe57 cbbd d650 ed3e 2df5 253e
000000c0: 00e5 7e3e 95be f83e aa66 df3e 6ebc 603e
000000d0: 7247 c63e 60b2 5c3e 7f4d babc e6f8 75be
000000e0: 84a1 4cbe 44dc 73bd 72bf 6bbd 559d b83e
000000f0: 5aaf a4bd dcaf 5abe 8e93 ecbd 7427 62be
00000100: 9230 2d3e c0f2 eb3e 7e95 8d3e 532f c53e
00000110: 3c07 2fbe 89c7 923e a5d3 0dbc df00 773e
00000120: 4049 cd3e 0bc3 41be 4eaf dfbd 5f69 f1bd
00000130: d297 42be 27de 8bbe 2d3c ac3c 61d2 28be
00000140: 23be 013f a4c1 78be b86d 863e a485 92be
00000150: dd2d c2bb 1f10 a53e 68c4 843d 4d72 c6be
00000160: fd66 47bd 64b9 863e 60b2 9e3e 0459 a3be
00000170: f8bc cb3d ca0a df3d dcc3 073e ee99 b23e
00000180: 310c b93e 528c a93c 94fd 9eba 1fb7 48bd
00000190: cc1e fcbe b2ba edbd 2f95 c43e bc5b 183f
000001a0: 32bf bd3e 73af 603e 0d5a aebc e8a8 7a3e
000001b0: fecd 08be dd50 a6be 612a ef3e 6f3c 81bd
000001c0: 5d79 763e b3e4 3d3e 29ba 0f3f dcf0 bc3e
000001d0: ce4d 223f af69 0f3f 0db4 5b3d 9b94 afbe
000001e0: b8c6 ff3e ccfe 82be 87e8 16bd fe1c f3be
000001f0: 98ac 8b3d 5583 8f3e 93e4 913e 085e f03d
00000200: 374a 3cbe 20dd a93d 8da2 56bc fc81 b0be
00000210: 82d1 a03e f176 063c b64e b73e 19d9 adbe
00000220: 80dd 363e de73 2abe 87e9 a0bd 5234 2bbe
00000230: 1b52 febd 72ab 0c3f 73da 39bd d3c3 90be
00000240: 2953 c43e 02da 0e3f de88 bb3e 8724 e13e
00000250: 621e 823d 825b be3e 59f5 f4bd 6673 893d
00000260: 9791 ab3e 670c 3f3d 2015 41bf 983e 67bd
00000270: fbe5 803e 6193 063f b7bb 87be 7fc7 853e
00000280: 68fb 113f 1f3f da3e 5434 473e a3b9 153e
00000290: 5633 bdbe f2b5 1c3f f643 953e c003 e0be
000002a0: d1ff 41be 7489 90be bebb f2be 894c c7be
000002b0: 3afa 203f 32c9 d23e 1c94 3a3d 6309 063f
000002c0: 9611 b9bd ab8d d03e 4b7d f83e f48d cabe
000002d0: bed4 3c3e 19dd 483f bdc1 5d3e ab5b 493f
000002e0: 2181 253f dfc7 253f 7b6c b93e a7c2 033f
000002f0: f19e 31be cce5 c1be 87b5 a3be 940e 7abe
00000300: b1a7 60be 8cb4 f13e 6f0f cd3e 968b dabd
00000310: 0dd4 91bc 4aae 6b3e b3a6 9bbe baa4 7cbe
00000320: 5200 9dbe 50b8 7fbe 8f99 35be ae0c 493e
00000330: cae9 c43e 2eda 11be 4e8d e03e 9a5c 84be
00000340: 831b 9e3e 9fcf 0e3e 1499 933e b04c 10be
00000350: 64e7 4e3e 10d4 983d 6f8b febd 9347 9ebd
00000360: f554 923d 228c 3c3f 7e1f 03bf ef8d 92bd
00000370: 4308 6b3e 9661 073f 5ce0 6fbd edb0 87be
00000380: 3486 fbbe 362c 46be ee7c 9dbd 4c6e dfbd
00000390: e381 253e e792 28be c18a 113f 309d 14be
000003a0: 8397 73bc 1416 183f ed42 78be bfbb d8bc
000003b0: 1c38 8c3e 50fa 13be bc13 00bd 440a eabb
000003c0: df08 79be fe46 c63d 223a 65be 7719 2a3f
000003d0: af77 02be 4ba2 173f f211 9f3e bb75 1cbe
000003e0: 120f 06bd 1104 0dbf 9c2c 2d3f fd5d 64be
000003f0: 7bbd 07be c2ac 23bf a85b 47bd 8586 9dbd

l1.bias f4 [8]
0.6588395 0.24784328 0.55212337 0.50805193 0.67516583 0.520276 0.33310604 0.44431603
00000000: b5a9 283f a1ca 7d3e f557 0d3f b10f 023f
00000010: abd7 2c3f cf30 053f e08c aa3e 647d e33e

l2.weight f4 [8, 8]
0.65145534 0.5944393 0.23990892 1.2599349 -0.56556743 -0.14086825 -0.43660778 -0.5295834
0.45774108 0.7286491 -0.59146005 0.30858174 0.51440275 1.2182176 0.0873112 0.93503886
0.97890204 0.3831994 1.0120524 0.86192507 -0.58238447 -0.9917372 -0.049292404 -0.027619231
-0.11118997 -0.84351057 0.6299407 -0.9800309 1.3855957 0.4022351 0.6174247 1.1808628
0.98994344 -0.7187538 -0.19292793 1.0589226 -0.2736133 -0.091416046 1.0093168 0.09882203
0.73859304 -0.0626747 0.5187205 -0.09547454 -1.0460132 0.2982454 0.7990065 1.0138894
0.36570963 0.9364839 0.7799974 0.40205178 0.9020216 0.480243 -0.69772077 -1.3713158
0.26804882 1.1322931 1.0617644 -1.1212561 -0.17572862 0.5583709 0.78058547 -0.68681943
00000000: c7c5 263f 2d2d 183f afaa 753e 8c45 a13f
00000010: 07c9 10bf c43f 10be 0e8b dfbe c792 07bf
00000020: 0a5d ea3e bf88 3a3f ed69 17bf 6dfe 9d3e
00000030: e6af 033f 8eee 9b3f 37d0 b23d b55e 6f3f
00000040: 5399 7a3f b632 c43e ef8a 813f 1fa7 5c3f
00000050: 2617 15bf 7de2 7dbf d5e6 49bd ba41 e2bc
00000060: 91b7 e3bd 4ff0 57bf cb43 213f 4ee3 7abf
00000070: 335b b13f c2f1 cd3e 8c0f 1e3f 8326 973f
00000080: ef6c 7d3f 4000 38bf e68e 45be c78a 873f
00000090: 0b17 8cbe 5638 bbbd 4b31 813f 3463 ca3d
000000a0: 6f14 3d3f 985b 80bd deca 043f 2888 c3bd
000000b0: c3e3 85bf 9fb3 983e b18b 4c3f 21c7 813f
000000c0: 4b3e bb3e 69bd 6f3f e9ad 473f bbd9 cd3e
000000d0: e3ea 663f 69e2 f53e d49d 32bf 4787 afbf
000000e0: b23d 893e fbee 903f e5e7 873f 5285 8fbf
000000f0: 34f2 33be 65f1 0e3f 73d4 473f 66d3 2fbf

l2.bias f4 [8]
0.22865774 -0.19754548 0.115660734 0.47934714 0.84809476 -0.26960555 0.78850985 0.4853306
00000000: 4125 6a3e 5d49 4abe 89df ec3d fd6c f53e
00000010: bd1c 593f bd09 8abe c8db 493f 417d f83e

l3.weight f4 [7, 8]
0.409879 0.3366063 0.23205678 -1.182712 0.40434042 0.41347754 -1.0782115 -1.1456562
-0.60413456 0.5732829 -0.44557497 0.8965998 -1.050108 -1.1138495 -0.36180067 -1.5564615
-1.3107108 -0.21033172 -1.2571018 0.3043786 0.4697871 -1.5006971 0.755326 0.5828923
0.71934 -0.6954669 0.55305535 -0.65735495 0.7170919 -1.2920909 0.7914412 -1.5295681
0.15509708 0.11354445 0.009120725 -1.201251 -0.91685957 0.42262298 0.48888764 0.2717635
-0.3796853 -0.7486394 0.40418512 0.20208481 -0.18999268 0.7417101 -0.62675273 -0.17749354
-0.9215258 0.59349525 -1.3493863 0.16050623 0.5107344 0.53635377 -0.8141855 -0.86765164
00000000: a9db d13e a957 ac3e 4ba0 6d3e 1b63 97bf
00000010: b505 cf3e 54b3 d33e d602 8abf dda4 92bf
00000020: 90a8 1abf abc2 123f 6722 e4be 9187 653f
00000030: f069 86bf 9f92 8ebf f03d b9be 213a c7bf
00000040: 5fc5 a7bf 3361 57be b6e8 a0bf 83d7 9b3e
00000050: ef87 f03e d816 c0bf 0b5d 413f 6e38 153f
00000060: ab26 383f 1e0a 32bf 0995 0d3f 6a48 28bf
00000070: 5693 373f 3c63 a5bf e49b 4a3f e3c8 c3bf
00000080: c5d1 1e3e fe89 e83d 186f 153c 98c2 99bf
00000090: 4fb7 6abf 0a62 d83e 7b4f fa3e 9624 8b3e
000000a0: 1d66 c2be d5a6 3fbf 5af1 ce3e 52ef 4e3e
000000b0: 718d 42be b7e0 3d3f de72 20bf dec0 35be
000000c0: 1de9 6bbf 4eef 173f b1b8 acbf bf5b 243e
000000d0: 7dbf 023f 7b4e 093f 766e 50bf 6b1e 5ebf

l3.bias f4 [7]
-0.49876073 0.08453492 0.1300678 0.5374391 -0.3172272 0.021612486 -0.13816567
00000000: 915d ffbe a520 ad3d 7e30 053e 9c95 093f
00000010: 9b6b a2be ab0c b13c 4d7b 0dbe
